Using TPU device: xla:0
Initial data size: 123879
After technical indicators: 123879
After prepare_data: 123866
Training fold 1
Sequence size: 20577
Train sequences: (20577, 64, 26), Targets: (20577, 5)
Using dataset - Train: 8000, Val: 2000
Enhanced s_mLSTM Stock Prediction Model:
EnhancedFunnyMachine(
  (extended_mlstm): ParallelExtendedSMLSTM(
    (input_projection): Linear(in_features=26, out_features=256, bias=True)
    (layer_norm): LayerNorm((256,), eps=1e-05, elementwise_affine=True)
    (mlstm_block): ParallelMLSTMBlock(
      (layer_norm): LayerNorm((256,), eps=1e-05, elementwise_affine=True)
      (up_proj): Sequential(
        (0): Linear(in_features=256, out_features=512, bias=True)
        (1): GELU(approximate='none')
      )
      (mlstm): ParallelSMLSTM(
        (cells): ModuleList(
          (0): ParallelSMLSTMCell(
            (W_q): Linear(in_features=512, out_features=256, bias=True)
            (W_k): Linear(in_features=512, out_features=256, bias=True)
            (W_v): Linear(in_features=512, out_features=256, bias=True)
            (W_i): Linear(in_features=512, out_features=1, bias=True)
            (W_f): Linear(in_features=512, out_features=1, bias=True)
            (W_o): Linear(in_features=512, out_features=256, bias=True)
            (ssm): StructuredStateSpace(
              (layer_norm): LayerNorm((256,), eps=1e-05, elementwise_affine=True)
            )
            (regime_detector): Sequential(
              (0): Linear(in_features=512, out_features=256, bias=True)
              (1): LayerNorm((256,), eps=1e-05, elementwise_affine=True)
              (2): GELU(approximate='none')
              (3): Linear(in_features=256, out_features=4, bias=True)
              (4): Softmax(dim=-1)
            )
            (layer_norm_input): LayerNorm((512,), eps=1e-05, elementwise_affine=True)
            (layer_norm_memory): LayerNorm((256,), eps=1e-05, elementwise_affine=True)
            (regime_processors): ModuleList(
              (0-3): 4 x Sequential(
                (0): Linear(in_features=256, out_features=256, bias=True)
                (1): LayerNorm((256,), eps=1e-05, elementwise_affine=True)
                (2): GELU(approximate='none')
              )
            )
          )
          (1): ParallelSMLSTMCell(
            (W_q): Linear(in_features=256, out_features=256, bias=True)
            (W_k): Linear(in_features=256, out_features=256, bias=True)
            (W_v): Linear(in_features=256, out_features=256, bias=True)
            (W_i): Linear(in_features=256, out_features=1, bias=True)
            (W_f): Linear(in_features=256, out_features=1, bias=True)
            (W_o): Linear(in_features=256, out_features=256, bias=True)
            (ssm): StructuredStateSpace(
              (layer_norm): LayerNorm((256,), eps=1e-05, elementwise_affine=True)
            )
            (regime_detector): Sequential(
              (0): Linear(in_features=256, out_features=256, bias=True)
              (1): LayerNorm((256,), eps=1e-05, elementwise_affine=True)
              (2): GELU(approximate='none')
              (3): Linear(in_features=256, out_features=4, bias=True)
              (4): Softmax(dim=-1)
            )
            (layer_norm_input): LayerNorm((256,), eps=1e-05, elementwise_affine=True)
            (layer_norm_memory): LayerNorm((256,), eps=1e-05, elementwise_affine=True)
            (regime_processors): ModuleList(
              (0-3): 4 x Sequential(
                (0): Linear(in_features=256, out_features=256, bias=True)
                (1): LayerNorm((256,), eps=1e-05, elementwise_affine=True)
                (2): GELU(approximate='none')
              )
            )
          )
        )
        (dropout_layer): Dropout(p=0.3, inplace=False)
        (trend_detector): Linear(in_features=256, out_features=3, bias=True)
      )
      (down_proj): Linear(in_features=256, out_features=256, bias=True)
    )
    (dropout): Dropout(p=0.3, inplace=False)
    (output_projection): Linear(in_features=256, out_features=256, bias=True)
    (regime_detector): Linear(in_features=256, out_features=4, bias=True)
    (signal_generator): Linear(in_features=256, out_features=3, bias=True)
    (price_head): Linear(in_features=256, out_features=5, bias=True)
    (direction_head): Linear(in_features=256, out_features=5, bias=True)
    (volatility_head): Linear(in_features=256, out_features=5, bias=True)
  )
  (regime_adapter): Linear(in_features=4, out_features=5, bias=True)
)
Total parameters: 1,935,431
Using 26 features: ['High', 'Low', 'Open', 'Volume', 'RSI', 'MACD', 'MACD_signal', 'BB_upper', 'BB_middle', 'BB_lower', 'ATR', 'Returns', 'Log_Returns', 'Volatility', 'Volume_MA', 'Volume_STD', 'DayOfWeek', 'MonthOfYear', 'EMA_Short', 'EMA_Long', 'EMA_Cross', 'RSI_Direction', 'ATR_Norm', 'Vol_Change', 'Vol_Trend', 'HourOfDay']
…
